…
s="language-python">Model: &quot;sequential_1&quot;_________________________________________________________________Layer (type)                 Output Shape              Param #   &#x3D;&#x3D;&#x3D;&#x3D;&#x3D;&#x3D;&#x3D;&#x3D;&#x3D;&#x3D;&#x3D;&#x3D;&#x3D;&#x3D;&#x3D;&#x3D;&#x3D;&#x3D;&#x3D;&#x3D;&#x3D;&#x3D;&#x3D;&#x3D;&#x3D;&#x3D;&#x3D;&#x3D;&#x3D;&#x3D;&#x3D;&#x3D;&#x3D;&#x3D;&#x3D;&#x3D;&#x3D;&#x3D;&#x3D;&#x3D;&#x3D;&#x3D;&#x3D;&#x3D;&#x3D;&#x3D;&#x3D;&#x3D;&#x3D;&#x3D;&#x3D;&#x3D;&#x3D;&#x3D;&#x3D;&#x3D;&#x3D;&#x3D;&#x3D;&#x3D;&#x3D;&#x3D;&#x3D;&#x3D;&#x3D;dense_2 (Dense)              (None, 512)               401920    _________________________________________________________________batch_normalization_2 (Batch (None, 512)               2048      _________________________________________________________________dropout_1 (Dropout)          (None, 512)               0         _________________________________________________________________dense_3 (Dense)              (None, 512)               262656    _________________________________________________________________batch_normalization_3 (Batch (None, 512)               2048      _________________________________________________________________activation (Activation)      (None, 512)               0         _________________________________________________________________dropout_2 (Dropout)          (None, 512)               0         _________________________________________________________________dense_4 (Dense)              (None, 10)                5130      &#x3D;&#x3D;&#x3D;&#x3D;&#x3D;&#x3D;&#x3D;&#x3D;&#x3D;&#x3D;&#x3D;&#x3D;&#x3D;&#x3D;&#x3D;&#x3D;&#x3D;&#x3D;&#x3D;&#x3D;&#x3D;&#x3D;&#x3D;&#x3D;&#x3D;&#x3D;&#x3D;&#x3D;&#x3D;&#x3D;&#x3D;&#x3D;&#x3D;&#x3D;&#x3D;&#x3D;&#x3D;&#x3D;&#x3D;&#x3D;&#x3D;&#x3D;&#x3D;&#x3D;&#x3D;&#x3D;&#x3D;&#x3D;&#x3D;&#x3D;&#x3D;&#x3D;&#x3D;&#x3D;&#x3D;&#x3D;&#x3D;&#x3D;&#x3D;&#x3D;&#x3D;&#x3D;&#x3D;&#x3D;&#x3D;Tota
…
ass="language-python">Model: &quot;sequential&quot;_________________________________________________________________Layer (type)                 Output Shape              Param #   &#x3D;&#x3D;&#x3D;&#x3D;&#x3D;&#x3D;&#x3D;&#x3D;&#x3D;&#x3D;&#x3D;&#x3D;&#x3D;&#x3D;&#x3D;&#x3D;&#x3D;&#x3D;&#x3D;&#x3D;&#x3D;&#x3D;&#x3D;&#x3D;&#x3D;&#x3D;&#x3D;&#x3D;&#x3D;&#x3D;&#x3D;&#x3D;&#x3D;&#x3D;&#x3D;&#x3D;&#x3D;&#x3D;&#x3D;&#x3D;&#x3D;&#x3D;&#x3D;&#x3D;&#x3D;&#x3D;&#x3D;&#x3D;&#x3D;&#x3D;&#x3D;&#x3D;&#x3D;&#x3D;&#x3D;&#x3D;&#x3D;&#x3D;&#x3D;&#x3D;&#x3D;&#x3D;&#x3D;&#x3D;&#x3D;conv2d (Conv2D)              (None, 24, 24, 6)         156       _________________________________________________________________max_pooling2d (MaxPooling2D) (None, 12, 12, 6)         0         _________________________________________________________________conv2d_1 (Conv2D)            (None, 8, 8, 16)          2416      _________________________________________________________________max_pooling2d_1 (MaxPooling2 (None, 4, 4, 16)          0         _________________________________________________________________flatten (Flatten)            (None, 256)               0         _________________________________________________________________dense (Dense)                (None, 120)               30840     _________________________________________________________________dense_1 (Dense)              (None, 84)                10164     _________________________________________________________________dense_2 (Dense)              (None, 10)                850       &#x3D;&#x3D;&#x3D;&#x3D;&#x3D;&#x3D;&#x3D;&#x3D;&#x3D;&#x3D;&#x3D;&#x3D;&#x3D;&#x3D;&#x3D;&#x3D;&#x3D;&#x3D;&#x3D;&#x3D;&#x3D;&#x3D;&#x3D;&#x3D;&#x3D;&#x3D;&#x3D;&#x3D;&#x3D;&#x3D;&#x3D;&#x3D;&#x3D;&#x3D;&#x3D;&#x3D;&#x3D;&#x3D;&#x3D;&#x3D;&#x3D;&#x3D;&#x3D;&#x3D;&#x3D;&#x3D;&#x3D;&#x3D;&#x3D;&#x3D;&#x3D;&#x3D;&#x3D;&#x3D;&#x3D;&#x3D;&#x3D;&#x3D;&#x3D;&#x3D;&#x3D;&#x3D;&#x3D;&#x3D;&#x3D;Tot
…
ass="language-python">Model: &quot;sequential&quot;_________________________________________________________________Layer (type)                 Output Shape              Param #   &#x3D;&#x3D;&#x3D;&#x3D;&#x3D;&#x3D;&#x3D;&#x3D;&#x3D;&#x3D;&#x3D;&#x3D;&#x3D;&#x3D;&#x3D;&#x3D;&#x3D;&#x3D;&#x3D;&#x3D;&#x3D;&#x3D;&#x3D;&#x3D;&#x3D;&#x3D;&#x3D;&#x3D;&#x3D;&#x3D;&#x3D;&#x3D;&#x3D;&#x3D;&#x3D;&#x3D;&#x3D;&#x3D;&#x3D;&#x3D;&#x3D;&#x3D;&#x3D;&#x3D;&#x3D;&#x3D;&#x3D;&#x3D;&#x3D;&#x3D;&#x3D;&#x3D;&#x3D;&#x3D;&#x3D;&#x3D;&#x3D;&#x3D;&#x3D;&#x3D;&#x3D;&#x3D;&#x3D;&#x3D;&#x3D;conv2d (Conv2D)              (1, 55, 55, 96)           11712     _________________________________________________________________max_pooling2d (MaxPooling2D) (1, 27, 27, 96)           0         _________________________________________________________________conv2d_1 (Conv2D)            (1, 27, 27, 256)          614656    _________________________________________________________________max_pooling2d_1 (MaxPooling2 (1, 13, 13, 256)          0         _________________________________________________________________conv2d_2 (Conv2D)            (1, 13, 13, 384)          885120    _________________________________________________________________conv2d_3 (Conv2D)            (1, 13, 13, 384)          1327488   _________________________________________________________________conv2d_4 (Conv2D)            (1, 13, 13, 256)          884992    _________________________________________________________________max_pooling2d_2 (MaxPooling2 (1, 6, 6, 256)            0         _________________________________________________________________flatten (Flatten)            (1, 9216)                 0         _________________________________________________________________dense (Dense)                (1, 4096)                 37752832  _________________________________________________________________dropout (Dropout)            (1, 4096)                 0         _________________________________________________________________dense_1 (Dense)              (1, 4096)                 16781312  _________________________________________________________________dropout_1 (Dropout)          (1, 4096)                 0         _________________________________________________________________dense_2 (Dense)              (1, 10)                   40970     &#x3D;&#x3D;&#x3D;&#x3D;&#x3D;&#x3D;&#x3D;&#x3D;&#x3D;&#x3D;&#x3D;&#x3D;&#x3D;&#x3D;&#x3D;&#x3D;&#x3D;&#x3D;&#x3D;&#x3D;&#x3D;&#x3D;&#x3D;&#x3D;&#x3D;&#x3D;&#x3D;&#x3D;&#x3D;&#x3D;&#x3D;&#x3D;&#x3D;&#x3D;&#x3D;&#x3D;&#x3D;&#x3D;&#x3D;&#x3D;&#x3D;&#x3D;&#x3D;&#x3D;&#x3D;&#x3D;&#x3D;&#x3D;&#x3D;&#x3D;&#x3D;&#x3D;&#x3D;&#x3D;&#x3D;&#x3D;&#x3D;&#x3D;&#x3D;&#x3D;&#x3D;&#x3D;&#x3D;&#x3D;&#x3D;Total
…
ass="language-python">Model: &quot;sequential&quot;_________________________________________________________________Layer (type)                 Output Shape              Param #   &#x3D;&#x3D;&#x3D;&#x3D;&#x3D;&#x3D;&#x3D;&#x3D;&#x3D;&#x3D;&#x3D;&#x3D;&#x3D;&#x3D;&#x3D;&#x3D;&#x3D;&#x3D;&#x3D;&#x3D;&#x3D;&#x3D;&#x3D;&#x3D;&#x3D;&#x3D;&#x3D;&#x3D;&#x3D;&#x3D;&#x3D;&#x3D;&#x3D;&#x3D;&#x3D;&#x3D;&#x3D;&#x3D;&#x3D;&#x3D;&#x3D;&#x3D;&#x3D;&#x3D;&#x3D;&#x3D;&#x3D;&#x3D;&#x3D;&#x3D;&#x3D;&#x3D;&#x3D;&#x3D;&#x3D;&#x3D;&#x3D;&#x3D;&#x3D;&#x3D;&#x3D;&#x3D;&#x3D;&#x3D;&#x3D;sequential_1 (Sequential)    (1, 112, 112, 64)         37568     _________________________________________________________________sequential_2 (Sequential)    (1, 56, 56, 128)          221440    _________________________________________________________________sequential_3 (Sequential)    (1, 28, 28, 256)          1475328   _________________________________________________________________sequential_4 (Sequential)    (1, 14, 14, 512)          5899776   _________________________________________________________________sequential_5 (Sequential)    (1, 7, 7, 512)            7079424   _________________________________________________________________sequential_6 (Sequential)    (1, 10)                   119586826 &#x3D;&#x3D;&#x3D;&#x3D;&#x3D;&#x3D;&#x3D;&#x3D;&#x3D;&#x3D;&#x3D;&#x3D;&#x3D;&#x3D;&#x3D;&#x3D;&#x3D;&#x3D;&#x3D;&#x3D;&#x3D;&#x3D;&#x3D;&#x3D;&#x3D;&#x3D;&#x3D;&#x3D;&#x3D;&#x3D;&#x3D;&#x3D;&#x3D;&#x3D;&#x3D;&#x3D;&#x3D;&#x3D;&#x3D;&#x3D;&#x3D;&#x3D;&#x3D;&#x3D;&#x3D;&#x3D;&#x3D;&#x3D;&#x3D;&#x3D;&#x3D;&#x3D;&#x3D;&#x3D;&#x3D;&#x3D;&#x3D;&#x3D;&#x3D;&#x3D;&#x3D;&#x3D;&#x3D;&#x3D;&#x3D;Total par
…
3D;&#x3D;&#x3D;&#x3D;&#x3D;&#x3D;&#x3D;&#x3D;&#x3D;&#x3D;&#x3D;&#x3D;&#x3D;&#x3D;&#x3D;&#x3D;&#x3D;&#x3D;&#x3D;&#x3D;&#x3D;&#x3D;&#x3D;&#x3D;&#x3D;&#x3D;&#x3D;&#x3D;&#x3D;&#x3D;&#x3D;&#x3D;&#x3D;&#x3D;&#x3D;&#x3D;&#x3D;&#x3D;&#x3D;&#x3D;&#x3D;&#x3D;&#x3D;&#x3D;&#x3D;&#x3D;&#x3D;&#x3D;&#x3D;&#x3D;&#x3D;&#x3D;&#x3D;&#x3D;&#x3D;&#x3D;&#x3D;&#x3D;&#x3D;&#x3D;&#x3D;&#x3D;&#x3D;&#x3D;&#x3D;&#x3D;&#x3D;&#x3D;&#x3D;&#x3D;&#x3D;&#x3D;&#x3D;&#x3D;&#x3D;&#x3D;&#x3D;&#x3D;&#x3D;&#x3D;&#x3D;&#x3D;&#x3D;&#x3D;&#x3D;&#x3D;&#x3D;&#x3D;&#x3D;&#x3D;&#x3D;&#x3D;&#x3D;&#x3D;&#x3D;input (InputLayer)              [(None, 224, 224, 1) 0                                            __________________________________________________________________________________________________conv2d_6 (Conv2D)               (None, 112, 112, 64) 3200        input[0][0]                      __________________________________________________________________________________________________max_pooling2d_1 (MaxPooling2D)  (None, 56, 56, 64)   0           conv2d_6[0][0]                   __________________________________________________________________________________________________conv2d_7 (Conv2D)               (None, 56, 56, 64)   4160        max_pooling2d_1[0][0]            __________________________________________________________________________________________________conv2d_8 (Conv2D)               (None, 56, 56, 192)  110784      conv2d_7[0][0]                   __________________________________________________________________________________________________max_pooling2d_2 (MaxPooling2D)  (None, 28, 28, 192)  0           conv2d_8[0][0]                   __________________________________________________________________________________________________inception_1 (Inception)         (None, 28, 28, 256)  163696      max_pooling2d_2[0][0]            __________________________________________________________________________________________________inception_2 (Inception)         (None, 28, 28, 480)  388736      inception_1[0][0]                __________________________________________________________________________________________________max_pooling2d_5 (MaxPooling2D)  (None, 14, 14, 480)  0           inception_2[0][0]                __________________________________________________________________________________________________inception_3 (Inception)         (None, 14, 14, 512)  376176      max_pooling2d_5[0][0]            __________________________________________________________________________________________________inception_4 (Inception)         (None, 14, 14, 512)  449160      inception_3[0][0]                __________________________________________________________________________________________________inception_5 (Inception)         (None, 14, 14, 512)  510104      inception_4[0][0]                __________________________________________________________________________________________________inception_6 (Inception)         (None, 14, 14, 528)  605376      inception_5[0][0]                __________________________________________________________________________________________________inception_7 (Inception)         (None, 14, 14, 832)  868352      inception_6[0][0]                __________________________________________________________________________________________________max_pooling2d_11 (MaxPooling2D) (None, 7, 7, 832)    0           inception_7[0][0]                __________________________________________________________________________________________________average_pooling2d (AveragePooli (None, 5, 5, 512)    0           inception_3[0][0]                __________________________________________________________________________________________________average_pooling2d_1 (AveragePoo (None, 5, 5, 528)    0           inception_6[0][0]                __________________________________________________________________________________________________inception_8 (Inception)         (None, 7, 7, 832)    1043456     max_pooling2d_11[0][0]           __________________________________________________________________________________________________conv2d_27 (Conv2D)              (None, 5, 5, 128)    65664       average_pooling2d[0][0]          __________________________________________________________________________________________________conv2d_46 (Conv2D)              (None, 5, 5, 128)    67712       average_pooling2d_1[0][0]        __________________________________________________________________________________________________inception_9 (Inception)         (None, 7, 7, 1024)   1444080     inception_8[0][0]                __________________________________________________________________________________________________flatten (Flatten)               (None, 3200)         0           conv2d_27[0][0]                  __________________________________________________________________________________________________flatten_1 (Flatten)             (None, 3200)         0           conv2d_46[0][0]                  __________________________________________________________________________________________________global_average_pooling2d (Globa (None, 1024)         0           inception_9[0][0]                __________________________________________________________________________________________________dense (Dense)                   (None, 1024)         3277824     flatten[0][0]                    __________________________________________________________________________________________________dense_2 (Dense)                 (None, 1024)         3277824     flatten_1[0][0]                  __________________________________________________________________________________________________dense_4 (Dense)                 (None, 10)           10250       global_average_pooling2d[0][0]   __________________________________________________________________________________________________dense_1 (Dense)                 (None, 10)           10250       dense[0][0]                      __________________________________________________________________________________________________dense_3 (Dense)                 (None, 10)           10250       dense_2[0][0]                    &#x3D;&#x3D;&#x3D;&#x3D;&#x3D;&#x3D;&#x3D;&#x3D;&#x3D;&#x3D;&#x3D;&#x3D;&#x3D;&#x3D;&#x3D;&#x3D;&#x3D;&#x3D;&#x3D;&#x3D;&#x3D;&#x3D;&#x3D;&#x3D;&#x3D;&#x3D;&#x3D;&#x3D;&#x3D;&#x3D;&#x3D;&#x3D;&#x3D;&#x3D;&#x3D;&#x3D;&#x3D;&#x3D;&#x3D;&#x3D;&#x3D;&#x3D;&#x3D;&#x3D;&#x3D;&#x3D;&#x3D;&#x3D;&#x3D;&#x3D;&#x3D;&#x3D;&#x3D;&#x3D;&#x3D;&#x3D;&#x3D;&#x3D;&#x3D;&#x3D;
…
